…
gwalking,gaidry,UNKOWN
vocabulary_size: 21324
dev shape:((9000, 128))
val shape:((1000, 128))
========================================
num_filter is 100.
K...
--------------------------------------------------------------------------------
1
Using Theano backend.
____________________________________________________________________________________________________
Layer (type)                     Output Shape          Param #     Connected to                     
====================================================================================================
input_1 (InputLayer)             (None, 128)           0                                            
____________________________________________________________________________________________________
embedding_1 (Embedding)          (None, 128, 300)      6397200     input_1[0][0]                    
____________________________________________________________________________________________________
reshape_1 (Reshape)              (None, 1, 128, 300)   0           embedding_1[0][0]                
____________________________________________________________________________________________________
convolution2dwrapper_1 (Convoluti(None, 100, 126, 1)   90100       reshape_1[0][0]                  
____________________________________________________________________________________________________
convolution2dwrapper_2 (Convoluti(None, 100, 125, 1)   120100      reshape_1[0][0]                  
____________________________________________________________________________________________________
convolution2dwrapper_3 (Convoluti(None, 100, 124, 1)   150100      reshape_1[0][0]                  
____________________________________________________________________________________________________
maxpooling2dwrapper_1 (MaxPooling(None, 100, 1, 1)     0           convolution2dwrapper_1[0][0]     
____________________________________________________________________________________________________
maxpooling2dwrapper_2 (MaxPooling(None, 100, 1, 1)     0           convolution2dwrapper_2[0][0]     
____________________________________________________________________________________________________
maxpooling2dwrapper_3 (MaxPooling(None, 100, 1, 1)     0           convolution2dwrapper_3[0][0]     
____________________________________________________________________________________________________
merge_1 (Merge)                  (None, 100, 3, 1)     0           maxpooling2dwrapper_1[0][0]      
                                                                   maxpooling2dwrapper_2[0][0]      
                                                                   maxpooling2dwrapper_3[0][0]      
____________________________________________________________________________________________________
activation_1 (Activation)        (None, 100, 3, 1)     0           merge_1[0][0]                    
____________________________________________________________________________________________________
dropout_1 (Dropout)              (None, 100, 3, 1)     0           activation_1[0][0]               
____________________________________________________________________________________________________
flatten_1 (Flatten)              (None, 300)           0           dropout_1[0][0]                  
____________________________________________________________________________________________________
dense_1 (Dense)                  (None, 2)             602         flatten_1[0][0]                  
____________________________________________________________________________________________________
activation_2 (Activation)        (None, 2)             0           dense_1[0][0]                    
====================================================================================================
Total params: 6758102
____________________________________________________________________________________________________
Train on 9000 samples, validate on 1000 samples
Epoch 1/30
9000/9000 [==============================] - 267s - loss: 0.3791 - acc: 0.8446 - val_loss: 0.2352 - val_acc: 0.9140
…
