…
versity,22nd,Zambia,October,coli,UNKOWN
vocabulary_size: 9613
dev shape:((5452, 46))
val shape:((500, 46))
========================================
num_filter is 100.
K折交叉验证开始...
--------------------------------------------------------------------------------
训练:
____________________________________________________________________________________________________
Layer (type)                     Output Shape          Param #     Connected to                     
====================================================================================================
input_1 (InputLayer)             (None, 46)            0                                            
____________________________________________________________________________________________________
embedding_1 (Embedding)          (None, 46, 300)       2883900     input_1[0][0]                    
____________________________________________________________________________________________________
reshape_1 (Reshape)              (None, 1, 46, 300)    0           embedding_1[0][0]                
____________________________________________________________________________________________________
convolution2dwrapper_1 (Convoluti(None, 100, 44, 1)    90100       reshape_1[0][0]                  
____________________________________________________________________________________________________
convolution2dwrapper_2 (Convoluti(None, 100, 43, 1)    120100      reshape_1[0][0]                  
____________________________________________________________________________________________________
convolution2dwrapper_3 (Convoluti(None, 100, 42, 1)    150100      reshape_1[0][0]                  
____________________________________________________________________________________________________
maxpooling2dwrapper_1 (MaxPooling(None, 100, 1, 1)     0           convolution2dwrapper_1[0][0]     
____________________________________________________________________________________________________
maxpooling2dwrapper_2 (MaxPooling(None, 100, 1, 1)     0           convolution2dwrapper_2[0][0]     
____________________________________________________________________________________________________
maxpooling2dwrapper_3 (MaxPooling(None, 100, 1, 1)     0           convolution2dwrapper_3[0][0]     
____________________________________________________________________________________________________
merge_1 (Merge)                  (None, 100, 3, 1)     0           maxpooling2dwrapper_1[0][0]      
                                                                   maxpooling2dwrapper_2[0][0]      
                                                                   maxpooling2dwrapper_3[0][0]      
____________________________________________________________________________________________________
activation_1 (Activation)        (None, 100, 3, 1)     0           merge_1[0][0]                    
____________________________________________________________________________________________________
dropout_1 (Dropout)              (None, 100, 3, 1)     0           activation_1[0][0]               
____________________________________________________________________________________________________
flatten_1 (Flatten)              (None, 300)           0           dropout_1[0][0]                  
____________________________________________________________________________________________________
dense_1 (Dense)                  (None, 6)             1806        flatten_1[0][0]                  
____________________________________________________________________________________________________
activation_2 (Activation)        (None, 6)             0           dense_1[0][0]                    
====================================================================================================
Total params: 3246006
____________________________________________________________________________________________________
Train on 5452 samples, validate on 500 samples
Epoch 1/30
5452/5452 [==============================] - 111s - loss: 1.6027 - acc: 0.3555 - val_loss: 1.4344 - val_acc: 0.5780
…
