vocabulary_size: 18766

========================================
num_filter is 100.
K折交叉验证开始...
--------------------------------------------------------------------------------
第1个验证
Using Theano backend.
____________________________________________________________________________________________________
Layer (type)                     Output Shape          Param #     Connected to
====================================================================================================
input_1 (InputLayer)             (None, 64)            0
____________________________________________________________________________________________________
embedding_1 (Embedding)          (None, 64, 300)       5629800     input_1[0][0]
____________________________________________________________________________________________________
reshape_1 (Reshape)              (None, 1, 64, 300)    0           embedding_1[0][0]
____________________________________________________________________________________________________
convolution2dwrapper_1 (Convoluti(None, 100, 62, 1)    90100       reshape_1[0][0]
____________________________________________________________________________________________________
convolution2dwrapper_2 (Convoluti(None, 100, 61, 1)    120100      reshape_1[0][0]
____________________________________________________________________________________________________
convolution2dwrapper_3 (Convoluti(None, 100, 60, 1)    150100      reshape_1[0][0]
____________________________________________________________________________________________________
maxpooling2dwrapper_1 (MaxPooling(None, 100, 1, 1)     0           convolution2dwrapper_1[0][0]
____________________________________________________________________________________________________
maxpooling2dwrapper_2 (MaxPooling(None, 100, 1, 1)     0           convolution2dwrapper_2[0][0]
____________________________________________________________________________________________________
maxpooling2dwrapper_3 (MaxPooling(None, 100, 1, 1)     0           convolution2dwrapper_3[0][0]
____________________________________________________________________________________________________
merge_1 (Merge)                  (None, 100, 3, 1)     0           maxpooling2dwrapper_1[0][0]
                                                                   maxpooling2dwrapper_2[0][0]
                                                                   maxpooling2dwrapper_3[0][0]
____________________________________________________________________________________________________
activation_1 (Activation)        (None, 100, 3, 1)     0           merge_1[0][0]
____________________________________________________________________________________________________
dropout_1 (Dropout)              (None, 100, 3, 1)     0           activation_1[0][0]
____________________________________________________________________________________________________
flatten_1 (Flatten)              (None, 300)           0           dropout_1[0][0]
____________________________________________________________________________________________________
dense_1 (Dense)                  (None, 2)             602         flatten_1[0][0]
____________________________________________________________________________________________________
activation_2 (Activation)        (None, 2)             0           dense_1[0][0]
====================================================================================================
Total params: 5990702
____________________________________________________________________________________________________
Train on 9596 samples, validate on 1066 samples
Epoch 1/25
9596/9596 [==============================] - 52s - loss: 0.6937 - acc: 0.5016 - val_loss: 0.6918 - val_acc: 0.5009
…
